models/first_model.pt (torch, 550390 bytes, 16 tensors)

conv1.att f4 [1, 4, 64]
-0.1563216 0.00589312 -0.25399408 0.20404297 -0.55054075 0.098088294 0.07444951 -0.7260157
0.43220878 -0.118484996 -0.1506113 0.32364008 -0.06950971 0.17256352 0.61180246 0.01814996
-0.205199 0.07851961 -0.6545391 0.1471339 -0.3074191 -0.057285525 -0.07502396 -0.185421
-0.28132272 -0.4603466 0.05193772 -0.26583514 -0.21137145 0.11039297 -0.16155477 -0.10541612
0.21947208 0.021667026 -0.60751754 0.3708076 -0.27998692 -0.22995117 -0.10846578 -0.39436984
-0.1250469 -0.20926724 -0.058669794 0.16242155 0.2818374 0.08151222 0.046082128 -0.6586145
-0.21998504 -0.45393527 0.0015700129 -0.0034188658 -0.56739646 -0.42363945 -0.26213288 0.69097745
0.18637188 -0.85532653 0.2754127 0.087000914 0.1733065 0.094106704 -0.4620898 -0.45760983
0.116695635 0.082116246 0.76917094 0.5465871 0.10397618 -0.2187436 0.50718427 -0.42375937
-0.4899249 -0.83079726 0.13964218 0.26877755 -0.684599 -0.056101818 -0.03203921 -0.59835523
-0.33890894 0.11965619 0.037201002 -0.103417166 -0.29835328 -0.11498354 0.37246984 -0.23832557
-0.23404597 -0.7186437 -0.24694747 0.128506 0.5438598 0.119436845 0.47544459 -0.049375586
0.006285025 0.5973406 -0.54418236 -0.13274467 -0.29300004 -0.24202953 0.47257242 0.21196513
0.66904664 0.18571627 -0.19006966 -0.063013695 -0.117163815 0.47352508 -0.68164265 -0.3848171
-0.23196399 0.002022784 0.1146907 0.16857278 -0.25082362 -0.06413653 0.48325354 0.17699829
-0.5949494 0.052714042 -0.1797772 -0.16479199 -0.31314015 0.57194006 -0.08599128 0.0039786384
0.29874027 0.22426663 0.20203911 -0.15663023 -0.6690873 0.06921581 0.31901476 -0.3351163
0.2889288 0.1610969 -0.53714454 0.12093271 0.010327507 -0.6318207 0.1445204 0.47361434
0.2067178 -0.33318803 0.04539452 -0.17671396 0.4155176 0.021075327 0.13642582 0.0012596524
-0.18309303 -0.008455506 0.3777262 -0.19719598 -0.33796915 -0.38281226 -0.36443466 0.4916342
-0.07825698 0.15681174 0.14306413 0.18259376 0.80109406 0.25425276 0.48765808 0.0350233
-0.10361477 -0.25861332 -0.13689525 -0.1477482 -0.30315125 0.34006774 -0.60328096 -0.22614533
-0.28407082 0.1444973 0.19118026 -0.75665957 -0.4145048 0.111676894 -0.8795181 0.06899423
-0.32798344 -0.16806903 0.14705248 -0.8464199 0.18869612 0.060615107 -0.06395963 -0.43457064
0.07225989 0.27688798 0.24066007 -0.040788498 0.39610186 -0.111562334 -0.34215605 -0.46022126
-0.20221673 -0.0033455633 -0.6806679 -0.36539614 0.22408478 0.13366193 0.10159947 0.32294908
-0.17377391 0.4337661 0.08142233 0.31555715 -0.305611 -0.35744783 -0.20520341 -0.47067922
-0.22336513 -0.35427794 -0.2750468 0.05429118 0.08050803 0.19178824 -0.19341967 0.11540275
1.0903457e-05 0.53906083 -0.2135464 -0.32303256 -0.0007742107 -0.11626724 -0.513771 0.11877985
0.18026829 -0.3016768 0.000530881 -0.07779778 -0.28984073 0.2527748 -0.43315867 -0.022623308
0.18745412 0.4910516 0.20756482 -0.25738558 -0.34351444 -0.13622032 0.08374976 0.18320633
0.2127413 0.25980172 -0.005599308 0.43013123 -0.07016332 0.12884055 -0.09860625 0.1862459
00000000: c512 20be 131b c13b 830b 82be a4f0 503e
00000010: 3df0 0cbf 84e2 c83d fc78 983d 2adc 39bf
00000020: 784a dd3e 43a8 f2bd d939 1abe 27b4 a53e
00000030: 1b5b 8ebd 7eb4 303e 169f 1c3f 3aaf 943c
00000040: b01f 52be e4ce a03d e08f 27bf 45aa 163e
00000050: 0966 9dbe 3aa4 6abd 29a6 99bd 01df 3dbe
00000060: 8809 90be 8db2 ebbe a6bc 543d 8b1b 88be
00000070: c271 58be b615 e23d 9d6e 25be 68e4 d7bd
00000080: 4abd 603e 0c7f b13c 4586 1bbf 7eda bd3e
00000090: 725a 8fbe 5278 6bbe 4f23 debd d8ea c9be
000000a0: 4b0c 00be 274a 56be bd4f 70bd d651 263e
000000b0: fe4c 903e e1ef a63d 9dc0 3c3d f69a 28bf
000000c0: c243 61be 346a e8be e4c8 cd3a 0d0f 60bb
000000d0: e540 11bf 45e7 d8be 4836 86be e6e3 303f
000000e0: 45d8 3e3e aef6 5abf e502 8d3e 892d b23d
000000f0: 4277 313e 04bb c03d 0997 ecbe d64b eabe
00000100: 1ffe ee3d 902c a83d 63e8 443f 22ed 0b3f
00000110: 77f1 d43d 53fe 5fbe d4d6 013f fdf6 d8be
00000120: 70d7 fabe 21af 54bf 5cfe 0e3e 369d 893e
00000130: e141 2fbf 05cb 65bd 8c3b 03bd cf2d 19bf
00000140: 7985 adbe 4e0e f53d 1460 183d 61cc d3bd
00000150: c3c1 98be 7d7c ebbd 5eb4 be3e 9e0b 74be
00000160: bfa9 6fbe 09f9 37bf ccdf 7cbe 1497 033e
00000170: 653a 0b3f 4e9b f43d 796d f33e 0e3e 4abd
00000180: 9cf2 cd3b 50eb 183f 894f 0bbf 38ee 07be
00000190: 1a04 96be 97d6 77be 03f5 f13e 630d 593e
000001a0: a446 2b3f 682c 3e3e 9fa1 42be 530d 81bd
000001b0: 95f3 efbd e171 f23e 2280 2ebf bf06 c5be
000001c0: f887 6dbe af90 043b f5e2 ea3d 589e 2c3e
000001d0: f46b 80be 035a 83bd 026d f73e 0a3f 353e
000001e0: 9b4e 18bf aeea 573d 8417 38be 3bbf 28be
000001f0: e853 a0be aa6a 123f 321c b0bd 3d5f 823b
00000200: 7cf4 983e 27a6 653e 57e3 4e3e ad63 20be
00000210: 4e49 2bbf 05c1 8d3d e755 a33e 5d94 abbe
00000220: 7aee 933e 96f6 243e 4e82 09bf 92ab f73d
00000230: b434 293c 00bf 21bf 28fd 133e 947d f23e
00000240: d5ad 533e 9f97 aabe 9bef 393d 81f4 34be
00000250: b9be d43e 2aa6 ac3c 36b3 0b3e ec1a a53a
00000260: bd7c 3bbe f688 0abc 5465 c13e beed 49be
00000270: 4b0a adbe f8ff c3be 2e97 babe 7ab7 fb3e
00000280: 3245 a0bd 4293 203e 677f 123e dcf9 3a3e
00000290: 8014 4d3f 6b2d 823e 52ae f93e 9874 0f3d
000002a0: fb33 d4bd f768 84be 452e 0cbe 4e4b 17be
000002b0: a436 9bbe 5c1d ae3e 9f70 1abf a492 67be
000002c0: bb71 91be 1af7 133e c2c4 433e 71b4 41bf
000002d0: f939 d4be dbb6 e43d 1928 61bf d94c 8d3d
000002e0: 72ed a7be 4a1a 2cbe ed94 163e f9ae 58bf
000002f0: 8e39 413e 8c47 783d 44fd 82bd 0b80 debe
00000300: fefc 933d 43c4 8d3e 986f 763e d711 27bd
00000310: ddcd ca3e cb7a e4bd 142f afbe 1fa2 ebbe
00000320: e711 4fbe 3d41 5bbb 4040 2ebf 3415 bbbe
00000330: 7b76 653e acde 083e 6213 d03d 9559 a53e
00000340: caf1 31be 9716 de3e c0c0 a63d b590 a13e
00000350: 0c79 9cbe 6703 b7be d820 52be defc f0be
00000360: d4b9 64be eb63 b5be efd2 8cbe 6e60 5e3d
00000370: 65e1 a43d 2364 443e ce0f 46be 4758 ec3d
00000380: feed 3637 e4ff 093f e8ab 5abe 8664 a5be
00000390: 67f4 4aba 851d eebd 7f86 03bf da42 f33d
000003a0: 4098 383e 6275 9abe d22a 0b3a 7154 9fbd
000003b0: 0166 94be b36b 813e f9c6 ddbe 8454 b9bc
000003c0: f9f3 3f3e 1e6b fb3e df8b 543e 0bc8 83be
000003d0: 20e1 afbe 577d 0bbe ff84 ab3d 719a 3b3e
000003e0: dbd8 593e bb04 853e 667a b7bb 293a dc3e
000003f0: c9b1 8fbd c7ee 033e 13f2 c9bd 3fb7 3e3e

conv1.bias f4 [256]
0.0069007305 0.0 -0.012416157 -0.000105320905 0.0 0.011124819 0.009354315 0.10898947
0.0 -0.0368219 -0.026919115 -0.026043968 -0.020252917 0.0 0.0 0.0
0.02963666 -0.021526217 0.011408833 -0.06615219 -0.14814664 0.007958204 -0.13884175 0.0
-0.041971434 -0.047864974 -0.034191396 0.06623221 0.059808828 0.016890457 0.0 0.0
0.088333026 -0.057494033 0.0 0.0 -0.118739635 0.019127918 -0.03415538 -0.05909321
0.0 0.0 -0.097072594 -0.10128791 0.0 -0.0332412 -0.06557918 -0.06878274
-0.12725556 0.05122997 0.0 0.0 -0.034768302 0.010529356 0.05738495 0.0
0.046908498 -0.054794524 0.066773 -0.02351377 0.0 0.0009405029 0.07134495 0.059500005
-0.021558745 0.0 0.095589034 -0.024386553 0.045104515 -0.026790636 0.0143497195 -0.0018775684
0.027604045 0.013742008 0.0 -0.16900791 -0.032970306 0.0 -0.0997492 0.0558753
-0.05190652 0.009461049 0.0 -0.015298803 -0.034372598 0.0 -0.010734872 0.03541308
-0.05443495 0.0 -0.109249264 0.0 0.06588685 0.020708341 0.09846239 -0.03783019
0.0 0.061808724 -0.086737804 0.0 0.0 -0.011233119 -0.023945678 -0.07489716
0.0 -0.066031285 -0.03618225 0.0 0.0625491 0.08535023 -0.08724609 -0.07440605
0.0 0.0 0.0 -0.12219553 0.0 -0.0073216567 0.0 0.0
-0.048642706 0.05618714 -0.00051363895 0.0 0.0 0.0 -0.070742875 0.0
-0.096443646 -0.07965492 0.058750696 -0.121484734 0.0 -0.08120802 -0.027847903 -0.06499176
0.015370819 0.009368574 -0.021833438 0.037049416 0.0 0.0870846 -0.059855267 0.01774229
-0.03627174 -0.019298712 0.066049136 0.0 -0.05989895 0.0 0.0 0.016478727
0.02363018 0.0 -0.08746116 -0.0774697 -0.1834097 -0.036478788 0.0 0.0
-0.10119068 -0.06785964 -0.05282802 -0.14923996 0.0 0.045981046 -0.11233879 0.0
-0.049264655 -0.094701685 0.0 -0.059456427 0.012188414 0.08492344 0.046144344 0.056714352
-0.07998783 0.035838235 0.06803602 0.061718404 0.019480772 -0.0189195 -0.0457324 0.0
0.0238307 0.0 0.113404974 -0.021670105 -0.0693281 0.0 0.0 0.0
0.06457603 -0.07212393 0.0 0.0 0.0 0.0 0.123649895 0.053708985
0.0 0.0 0.0043217037 0.20992477 0.0 0.0 0.0 0.0
-0.05237183 0.022774717 -0.10750415 -0.030718604 0.07058352 -0.041618466 0.0 -0.020456985
0.0 -0.04381498 -0.03216293 0.05080112 -0.09966244 -0.008591294 0.0 0.0
0.0 -0.07062657 -0.018087594 0.0 0.0 0.0 0.16437481 -0.0071402765
0.0 0.0 0.035004582 0.0 -0.080730684 0.0 0.18606077 0.0
0.01875661 -0.027109383 0.0 0.0 0.043575965 -0.06724295 0.020496191 0.0
0.0 -0.038568567 0.027535537 0.030387567 -0.041773338 0.0 0.0 0.0050220215
00000000: 861f e23b 0000 0000 236d 4bbc bbdf dcb8
00000010: 0000 0000 df44 363c d742 193c df35 df3d
00000020: 0000 0000 90d2 16bd 7a85 dcbc 295a d5bc
00000030: 72e9 a5bc 0000 0000 0000 0000 0000 0000
00000040: 95c8 f23c c057 b0bc 1dec 3a3c cd7a 87bd
00000050: c1b3 17be 2063 023c 882c 0ebe 0000 0000
00000060: 3dea 2bbd 100e 44bd 470c 0cbd c1a4 873d
00000070: 1afa 743d db5d 8a3c 0000 0000 0000 0000
00000080: f2e7 b43d dd7e 6bbd 0000 0000 0000 0000
00000090: c42d f3bd 27b2 9c3c 83e6 0bbd b90b 72bd
000000a0: 0000 0000 0000 0000 ffcd c6bd 0970 cfbd
000000b0: 0000 0000 ed27 08bd 614e 86bd f7dd 8cbd
000000c0: 484f 02be 84d6 513d 0000 0000 0000 0000
000000d0: 3569 0ebd 5283 2c3c 7b0c 6b3d 0000 0000
000000e0: 2023 403d 3970 60bd 48c0 883d f39f c0bc
000000f0: 0000 0000 158c 763a 4d1d 923d 47b6 733d
00000100: f79b b0bc 0000 0000 2fc4 c33d 4fc6 c7bc
00000110: 83bf 383d 0978 dbbc 161b 6b3c be18 f6ba
00000120: e121 e23c 2926 613c 0000 0000 6910 2dbe
00000130: df0b 07bd 0000 0000 4f49 ccbd 80dd 643d
00000140: ee9b 54bd 8402 1b3c 0000 0000 d5a7 7abc
00000150: 48ca 0cbd 0000 0000 51e1 2fbc 4e0d 113d
00000160: 2ff7 5ebd 0000 0000 14be dfbd 0000 0000
00000170: afef 863d 8aa4 a93c a6a6 c93d d4f3 1abd
00000180: 0000 0000 252b 7d3d 97a3 b1bd 0000 0000
00000190: 0000 0000 1e0b 38bc ba29 c4bc af63 99bd
000001a0: 0000 0000 693b 87bd d733 14bd 0000 0000
000001b0: be19 803d 1acc ae3d 14ae b2bd 3362 98bd
000001c0: 0000 0000 0000 0000 0000 0000 a641 fabd
000001d0: 0000 0000 82ea efbb 0000 0000 0000 0000
000001e0: 933d 47bd 7d24 663d baa5 06ba 0000 0000
000001f0: 0000 0000 0000 0000 a4e1 90bd 0000 0000
00000200: 3f84 c5bd 1e22 a3bd 92a4 703d fdcc f8bd
00000210: 0000 0000 6450 a6bd 4921 e4bc 661a 85bd
00000220: e3d5 7b3c a67e 193c 0adc b2bc 21c1 173d
00000230: 0000 0000 6959 b23d cc2a 75bd 4758 913c
00000240: ad91 14bd 5518 9ebc c544 873d 0000 0000
00000250: 9a58 75bd 0000 0000 0000 0000 65fe 863c
00000260: 1494 c13c 0000 0000 d61e b3bd 6fa8 9ebd
00000270: c1cf 3bbe c86a 15bd 0000 0000 0000 0000
00000280: 0f3d cfbd fff9 8abd 3262 58bd 5cd2 18be
00000290: 0000 0000 9f56 3c3d e111 e6bd 0000 0000
000002a0: bcc9 49bd f5f2 c1bd 0000 0000 9588 73bd
000002b0: eab1 473c 57ec ad3d da01 3d3d 4f4d 683d
000002c0: a9d0 a3bd 1dcb 123d 7856 8b3d 70cc 7c3d
000002d0: 2496 9f3c 11fd 9abc e651 3bbd 0000 0000
000002e0: 9a38 c33c 0000 0000 de40 e83d 8185 b1bc
000002f0: e4fb 8dbd 0000 0000 0000 0000 0000 0000
00000300: 7040 843d b6b5 93bd 0000 0000 0000 0000
00000310: 0000 0000 0000 0000 283c fd3d f4fd 5b3d
00000320: 0000 0000 0000 0000 149d 8d3b 85f6 563e
00000330: 0000 0000 0000 0000 0000 0000 0000 0000
00000340: d883 56bd 0b92 ba3c 232b dcbd 95a5 fbbc
00000350: 188e 903d 2078 2abd 0000 0000 6895 a7bc
00000360: 0000 0000 5677 33bd 47bd 03bd d614 503d
00000370: d21b ccbd 80c2 0cbc 0000 0000 0000 0000
00000380: 0000 0000 aaa4 90bd 6f2c 94bc 0000 0000
00000390: 0000 0000 0000 0000 df51 283e fbf8 e9bb
000003a0: 0000 0000 0000 0000 f760 0f3d 0000 0000
000003b0: 2156 a5bd 0000 0000 b786 3e3e 0000 0000
000003c0: 76a7 993c 7f14 debc 0000 0000 0000 0000
000003d0: b67c 323d acb6 89bd a1e7 a73c 0000 0000
000003e0: 0000 0000 13fa 1dbd 3592 e13c 59ef f83c
000003f0: 851a 2bbd 0000 0000 0000 0000 c58f a43b

conv1.lin_l.weight f4 [256, 4]
0.20772296 0.090533026 -0.20209627 -0.23343301 -0.03661272 -0.050746817 -0.042577293 0.077834375
0.2172709 0.14777827 -0.04532161 -0.19246136 0.010260633 -0.08164339 0.19019926 -0.061656065
0.10104018 -0.38862002 -0.46590036 0.118475094 0.09077644 -0.14631833 -0.15419346 0.10701617
-0.08225805 -0.043608394 -0.28192753 0.2843418 0.39714092 -0.2785435 -0.18599997 0.044552345
-0.019161116 -0.16561487 -0.06062029 0.16667458 0.27648044 -0.29339415 -0.10866741 -0.32569164
0.14773731 0.05884611 -0.24894795 0.16955392 -0.04903411 0.031384904 0.08232524 -0.19648312
-0.07171546 -0.06345583 -0.17528102 -0.014187163 -0.04022011 -0.16933699 0.07638127 -0.21538842
0.17895548 -0.060540557 -0.14795217 -0.2723178 -0.044385925 -0.027584165 0.091378294 -0.0073414175
0.1999604 -0.23457807 -0.21159865 -0.04385324 0.13683093 0.041475005 -0.15986913 -0.15096939
0.3332457 -0.1947241 -0.28330573 0.16319597 -0.09372305 0.28030092 -0.010568109 0.025876652
-0.22321191 0.15297939 -0.1003478 -0.2030924 0.03264525 0.27233675 -0.09858692 0.09200031
-0.16958791 -0.10080398 -0.16330595 0.04167924 -0.0039944104 -0.06470703 0.007475117 -0.08049793
-0.17627354 0.22045563 -0.059614763 0.21454051 0.20724563 -0.021340711 -0.14952397 -0.029616019
0.15826589 -0.19309846 -0.23562391 0.12595662 -0.15753011 -0.084838726 -0.02044419 0.3554258
0.26170224 0.11678926 -0.114230484 -0.23164535 -0.023274127 0.4167132 -0.14769961 -0.07699558
-0.015496541 -0.121555366 -0.044306327 0.020435365 0.043724228 0.122195646 -0.15740255 0.1296325
-0.5035017 -0.82132596 0.5167153 -0.7639546 0.00732233 0.022174016 -0.23176342 -0.03226604
-0.17176329 0.073097974 -0.030630086 -0.110484764 0.0032034786 -0.04953305 0.26974738 -0.003822154
-0.19992156 -0.13370703 -0.1852993 0.04190942 0.27174884 0.14098275 -0.098715164 -0.2928941
0.1318666 -0.02955195 -0.23485851 -0.1561873 0.017839057 0.10323837 -0.068579465 0.20636621
-0.08850731 -0.0905968 -0.20661208 0.084523186 -0.021041162 0.060450785 -0.13069142 0.13785996
-0.17077363 -0.06598317 -0.16319218 -0.02921711 -0.082893476 0.3349575 -0.09938987 0.020077834
0.04986229 -0.045553595 0.051332854 -0.19706854 0.18959227 -0.14393213 -0.040789388 0.105827264
-0.054019 -0.18249886 0.071626864 -0.11329195 -0.11610441 0.011232326 0.024234602 0.019525131
-0.10299786 -0.06722429 -0.14557762 -0.07223308 0.19934021 -0.11265505 -0.3964962 0.2018455
-0.03017409 -0.01512406 -0.044002317 0.008019092 -0.0625301 -0.13265252 0.0268841 -0.00811153
-0.23790064 0.12802634 -0.11346907 0.15561129 -0.032229602 0.03841524 -0.060976647 0.32042924
-0.15088528 0.04742195 0.22204396 0.14509977 -0.12312028 0.056208428 0.32377028 -0.15565321
-0.32362142 0.19630946 0.24140239 -0.054834954 0.117950894 -0.13277115 -0.07571341 -0.008217834
0.06855325 -0.36374965 -0.08410259 0.31711006 -0.15748249 -0.0008222575 0.14071836 0.09120202
-0.18245274 0.020968879 0.11313988 -0.032714605 0.026321227 0.16233167 0.24222384 -0.2232073
-0.121559046 0.21436138 -0.081164315 0.43671402 -0.18255474 0.4106665 -0.20564732 0.12224861
00000000: 54b5 543e 6169 b93d 53f2 4ebe 1009 6fbe
00000010: 38f7 15bd e5db 4fbd 8765 2ebd a167 9f3d
00000020: 437c 5e3e 3053 173e 27a3 39bd 9714 45be
00000030: 371c 283c a634 a7bd 98c3 423e 128b 7cbd
00000040: 27ee ce3d 34f9 c6be 7e8a eebe 12a3 f23d
00000050: 00e9 b93d 79d4 15be e4e4 1dbe 4b2b db3d
00000060: e976 a8bd b79e 32bd ce58 90be 4095 913e
00000070: 0e56 cb3e 419d 8ebe c776 3ebe 857c 363d
00000080: c6f7 9cbc f296 29be fb4c 78bd beac 2a3e
00000090: d88e 8d3e c237 96be 058d debd 0ec1 a6be
000000a0: 7348 173e 9e08 713d 36ec 7ebe 8b9f 2d3e
000000b0: fed7 48bd 758d 003d 239a a83d df32 49be
000000c0: 8edf 92bd 21f5 81bd de7c 33be 4671 68bc
000000d0: d8bd 24bd ad66 2dbe c96d 9c3d c88e 5cbe
000000e0: 1b40 373e 60f9 77bd c680 17be 3d6d 8bbe
000000f0: 04ce 35bd 30f8 e1bc 8b24 bb3d 4690 f0bb
00000100: 6bc2 4c3e 3c35 70be 51ad 58be 749f 33bd
00000110: 681d 0c3e b2e1 293d bcb4 23be b897 1abe
00000120: 2e9f aa3e c165 47be 730d 91be d81c 273e
00000130: dff1 bfbd 9a83 8f3e dd25 2dbc 46fb d33c
00000140: aa91 64be a1a6 1c3e 2683 cdbd 74f7 4fbe
00000150: 07b7 053d b96f 8b3e f0e7 c9bd a96a bc3d
00000160: 74a8 2dbe 5172 cebd ad39 27be dab7 2a3d
00000170: 8be3 82bb 1f85 84bd d4f1 f43b 19dc a4bd
00000180: 0d81 34be 1fbf 613e 9c2e 74bd 82b0 5b3e
00000190: 3338 543e b7d2 aebc d01c 19be 4b9d f2bc
000001a0: 7410 223e 9abb 45be 6547 71be c6fa 003e
000001b0: 934f 21be edbf adbd 937a a7bc 5ffa b53e
000001c0: d6fd 853e 352f ef3d acf1 e9bd 7034 6dbe
000001d0: 62a9 bebc 6f5b d53e 913e 17be dcaf 9dbd
000001e0: 34e5 7dbc 05f2 f8bd 8d7a 35bd 1168 a73c
000001f0: 2d18 333d b641 fa3d 222e 21be 62be 043e
00000200: 7de5 00bf 6b42 52bf 7447 043f 8792 43bf
00000210: 28f0 ef3b 48a6 b53c 6453 6dbe 6529 04bd
00000220: b7e2 2fbe 64b4 953d f2eb fabc d645 e2bd
00000230: 74f1 513b 2be3 4abd 541c 8a3e 1a7d 7abb
00000240: 3db8 4cbe 7fea 08be 1abf 3dbe 36a9 2b3d
00000250: aa22 8b3e c85d 103e 2d2b cabd 37f6 95be
00000260: 0a08 073e ee16 f2bc c07e 70be 90ef 1fbe
00000270: 3723 923c a36e d33d 6473 8cbd aa51 533e
00000280: 5243 b5bd d18a b9bd 1e92 53be 7e1a ad3d
00000290: 845e acbc 3e9b 773d f9d3 05be 292b 0d3e
000002a0: 48df 2ebe 2f22 87bd da1b 27be b858 efbc
000002b0: 0ec4 a9bd 8d7f ab3e eb8c cbbd 457a a43c
000002c0: 673c 4c3d 6896 3abd 6642 523d 56cc 49be
000002d0: 7a24 423e f262 13be c612 27bd f7bb d83d
000002e0: 0743 5dbd fbe0 3abe 1bb1 923d 9c05 e8bd
000002f0: 26c8 edbd ca07 383c a587 c63c 2bf3 9f3c
00000300: 8bf0 d2bd e3ac 89bd 4d12 15be f0ee 93bd
00000310: d71f 4c3e b1b7 e6bd 8d01 cbbe 96b0 4e3e
00000320: a72f f7bc e8ca 77bc c63b 34bd 8262 033c
00000330: c80f 80bd 10d6 07be 0b3c dc3c 39e6 04bc
00000340: 3a9c 73be 5619 033e 7962 e8bd 9158 1f3e
00000350: 3003 04bd 4c59 1d3d a6c2 79bd 4d0f a43e
00000360: ac81 1abe 853d 423d 7e5f 633e 0995 143e
00000370: 7c26 fcbd cf3a 663d 38c5 a53e 8e63 1fbe
00000380: b5b1 a5be 5905 493e 3032 773e 9e9a 60bd
00000390: 3d90 f13d 29f5 07be a20f 9bbd 18a4 06bc
000003a0: a565 8c3d 653d babe fb3d acbd 405c a23e
000003b0: 1743 21be c48c 57ba 7918 103e 20c8 ba3d
000003c0: e4d4 3abe edc6 ab3c e2b5 e73d c0ff 05bd
000003d0: 9d9f d73c 463a 263e 8709 783e 7490 64be
000003e0: f3f3 f8bd 8d81 5b3e 7a39 a6bd fb98 df3e
000003f0: a1ef 3abe e142 d23e 3695 52be 7b5d fa3d

conv1.lin_l.bias f4 [256]
0.057037134 -0.49903187 0.018453572 -0.200408 -0.20794006 0.07209647 -0.05721979 -0.16026792
-0.20434226 0.20991413 0.0624515 -0.105886795 -0.0450946 -0.27558926 -0.3922411 -0.49706736
0.13236381 0.4682743 -0.03280993 0.13530523 0.33896083 0.02421716 0.30677897 -0.3654311
0.124321885 -0.19985186 0.19092879 -0.08202498 -4.1925894e-05 0.072581865 -0.26847008 -0.23929895
-0.055979248 0.3626668 -0.30223355 -0.34399638 0.30877134 0.028463041 0.3350427 0.086090796
-0.36371028 -0.40541133 0.39377114 0.31657383 -0.13035196 0.16444235 0.16994174 0.18237996
0.24866839 -0.06735558 -0.28354728 -0.2420445 0.18021613 -0.11586963 0.03329236 -0.35860565
0.0027120265 0.32803378 -0.029081196 0.14613754 -0.48896834 -0.24477237 -0.028944146 -0.13102168
-0.07141409 -0.17049256 -0.26872602 -0.08787265 -0.02422294 0.0612444 0.18489861 0.016549518
-0.1279712 0.009826978 -0.053199727 0.29848996 -0.1700488 -0.34377497 0.38303265 -0.17153724
0.13227235 -0.034121275 -0.3184088 0.060879447 -0.26375118 -0.38545492 -0.22872241 0.034143936
0.298355 -0.4111736 0.37430212 -0.39925364 0.0033070445 0.08739103 0.07276113 0.107664876
-0.3829356 -0.059840858 0.40503895 -0.2895021 -0.37574878 0.08869228 0.08476232 0.15977497
-0.45340535 0.22387114 0.1942076 -0.4811542 -0.023890045 -0.09733596 0.23621091 0.13245411
-0.28130472 -0.31296104 -0.2980978 0.2880492 -0.38389716 0.0006302486 -0.25066996 -0.2555745
-0.23756689 -0.025299028 0.12625693 -0.39991096 -0.42448297 -0.26687855 0.4006106 -0.376527
0.26121476 0.42001686 0.013493331 0.29656902 -0.41753283 0.32920745 0.21635298 0.19340366
0.13350783 -0.036927603 0.22917101 -0.0033386257 -0.4494773 -0.06311537 0.19358552 0.07980646
-0.025362223 -0.13122891 -0.0028534492 -0.49338776 -0.31387296 -0.4094887 -0.36836693 0.017082846
0.066168725 -0.11353988 0.40863535 0.23889776 0.2644001 0.15751857 -0.2806629 -0.502789
0.29397792 0.42053333 0.019093469 0.29384026 -0.20067275 0.10520524 0.21714517 -0.47139326
0.19707161 0.20549169 -0.4147817 0.3138262 0.088189326 0.067886986 -0.046906646 0.14120956
0.1388341 0.025866155 -0.05792151 0.029261153 0.0664743 0.23677655 0.3204752 -0.30522054
-0.017361544 -0.31557658 0.027611466 0.1946906 0.2785817 -0.30345133 -0.15523331 -0.4229923
-0.056719173 0.38951465 -0.22199398 -0.3788604 -0.29095432 -0.36604598 -0.067989245 0.031733453
-0.4971467 -0.118713625 0.08549663 -0.0039697527 -0.33898252 -0.42108598 -0.34034452 -0.2990878
0.21588251 -0.086030334 0.1883303 0.15028767 -0.04626662 0.07988169 -0.37140337 0.18104109
-0.3626403 -0.20255233 0.11983936 -0.05719113 0.37404302 0.09999691 -0.3639282 -0.42179507
-0.45855987 -0.27833086 -0.17582224 -0.4808006 -0.29534128 -0.35626483 -0.088133864 0.13723043
-0.414115 -0.20795706 0.00636938 -0.2516479 0.22200947 -0.23804922 -0.115469515 -0.21695209
0.0637364 -0.31835395 -0.46352947 -0.3917162 -0.020607492 0.14261477 -0.01939942 -0.18564032
-0.49614888 0.18246207 0.04878903 0.034622423 0.11785867 -0.2922835 -0.17403072 0.20671217
00000000: c59f 693d 1b81 ffbe f22b 973c c137 4dbe
00000010: 3dee 54be 50a7 933d 4c5f 6abd 461d 24be
00000020: 193f 51be bbf3 563e 25cd 7f3d 2ddb d8bd
00000030: 1eb5 38bd 091a 8dbe d3d3 c8be 9d7f febe
00000040: 618a 073e a6c1 ef3e b563 06bd 748d 0a3e
00000050: 468c ad3e 1163 c63c 2212 9d3e c919 bbbe
00000060: 799c fe3d f7a5 4cbe d682 433e b6fc a7bd
00000070: 96d9 2fb8 cda5 943d e974 89be c90a 75be
00000080: 7f4a 65bd 76af b93e 5bbe 9abe 4b20 b0be
00000090: 4717 9e3e 532b e93c b78a ab3e 5f50 b03d
000000a0: 3c38 babe 1392 cfbe 5f9c c93e f715 a23e
000000b0: fc7a 05be 9363 283e 3505 2e3e d0c1 3a3e
000000c0: eda2 7e3e b9f1 89bd 1c2d 91be 83da 77be
000000d0: 948a 383e 0e4d edbd 925d 083d 299b b7be
000000e0: 41bc 313b 0bf4 a73e b03b eebc 14a5 153e
000000f0: 0f5a fabe 9ca5 7abe 461c edbc 8c2a 06be
00000100: 8d41 92bd 9a95 2ebe 7596 89be 93f6 b3bd
00000110: 306f c6bc 68db 7a3d 1056 3d3e db92 873c
00000120: e20a 03be 5501 213c f5e7 59bd add3 983e
00000130: 4621 2ebe 4603 b0be db1c c43e 75a7 2fbe
00000140: 6772 073e c0c2 0bbd 7a06 a3be ba5c 793d
00000150: 650a 87be 595a c5be 3536 6abe 83da 0b3d
00000160: fdc1 983e 5985 d2be 87a4 bf3e f96a ccbe
00000170: 00bb 583b 11fa b23d ca03 953d 677f dc3d
00000180: 2310 c4be b01b 75bd 4461 cf3e 9f39 94be
00000190: 2562 c0be 4ca4 b53d de97 ad3d 0d9c 233e
000001a0: bf24 e8be 7a3e 653e 5bde 463e d859 f6be
000001b0: 0eb5 c3bc 1358 c7bd 46e1 713e 0da2 073e
000001c0: 2c07 90be 6e3c a0be 46a0 98be 2f7b 933e
000001d0: 2b8e c4be 4537 253a d057 80be a9da 82be
000001e0: bc44 73be e83f cfbc 7f49 013e 21c1 ccbe
000001f0: d555 d9be 4ea4 88be d51c cd3e 26c8 c0be
00000200: f1bd 853e 730c d73e 2213 5d3c e5d7 973e
00000210: ddc6 d5be e18d a83e a38b 5d3e 9c0b 463e
00000220: 47b6 083e 6641 17bd ceab 6a3e d8cc 5abb
00000230: e321 e6be a242 81bd 483b 463e 9271 a33d
00000240: 70c4 cfbc df60 06be ef00 3bbb 529d fcbe
00000250: f5b3 a0be 81a8 d1be 979a bcbe 53f1 8b3c
00000260: 7883 873d 9987 e8bd a738 d13e 9da1 743e
00000270: 735f 873e 8c4c 213e 0cb3 8fbe c8b6 00bf
00000280: 4684 963e 2550 d73e e869 9c3c 3b72 963e
00000290: 287d 4dbe d875 d73d 4e5b 5e3e 755a f1be
000002a0: 24cd 493e 6a6c 523e 445e d4be d4ad a03e
000002b0: 9b9c b43d 5508 8b3d 2f21 40bd 3d99 103e
000002c0: 872a 0e3e 42e5 d33c 1b3f 6dbd 16b5 ef3c
000002d0: ae23 883d 8d75 723e 5315 a43e de45 9cbe
000002e0: cc39 8ebc 4193 a1be 7131 e23c f95c 473e
000002f0: 43a2 8e3e f95d 9bbe 7bf5 1ebe 7292 d8be
00000300: 5d52 68bd 776e c73e 6452 63be fef9 c1be
00000310: f7f7 94be 616a bbbe f23d 8bbd f0fa 013d
00000320: 038a febe 2120 f3bd db18 af3d b314 82bb
00000330: 1e8f adbe 9598 d7be a341 aebe 0922 99be
00000340: 4e10 5d3e ac30 b0bd a8d9 403e 03e5 193e
00000350: 1182 3dbd 0399 a33d 9528 bebe d662 393e
00000360: fdab b9be e169 4fbe 576e f53d 3f41 6abd
00000370: 9182 bf3e 2ecb cc3d cc54 babe 86f5 d7be
00000380: 5cc8 eabe 6281 8ebe bf0a 34be 7f2b f6be
00000390: f936 97be 5868 b6be 877f b4bd 2286 0c3e
000003a0: e206 d4be b2f2 54be 3bb6 d03b fed7 80be
000003b0: 7356 633e 2dc3 73be 487b ecbd b028 5ebe
000003c0: 3b88 823d 4aff a2be bc53 edbe 078f c8be
000003d0: 0bd1 a8bc 9b09 123e 88eb 9ebc 7f18 3ebe
000003e0: 3a07 febe 56d7 3a3e 02d7 473d 3ed0 0d3d
000003f0: e35f f13d 2fa6 95be 1c35 32be 5bac 533e

conv1.lin_r.weight f4 [256, 4]
-0.0010601744 0.060654692 -0.0426354 -0.018504959 0.14742987 -0.10500388 0.14087403 0.13031301
0.2618893 -0.17834984 -0.017683798 0.42473638 -0.03457 -0.04115089 -0.00384109 -0.021970585
0.057410907 0.15632454 0.35819402 -0.27913 0.13574949 0.04017565 -0.19812255 0.04259359
-0.10887554 0.5173034 -0.07737177 -0.092335254 0.09237046 -0.028030839 0.25462288 -0.40200195
-0.10797258 0.45558682 0.17681918 -0.38278005 0.12490538 0.013560332 0.15189186 0.13145445
-0.10905645 -0.045550708 0.11567692 0.10190796 0.09776615 -0.057137817 -0.06558791 0.054000746
0.08324761 0.104419924 0.039578684 -0.025244562 0.06870052 -0.03963552 -0.03924413 0.14330067
0.01937009 0.68451184 -0.2509802 -0.29239064 -0.1381895 -0.11160993 -0.091338836 0.031621084
-0.11965467 -0.098081425 0.32424775 -0.018253028 -0.12431952 -0.11847065 -0.0792752 0.1284976
-0.0518323 0.018669402 0.14322722 -0.47628722 -0.09431871 -0.13769497 -0.011476442 -0.02498357
-0.17910805 -0.09344553 0.1351493 0.5153864 0.026683297 0.04833644 -0.0724627 0.020169139
0.0828831 0.06136626 0.14210185 0.077176064 -0.09516722 0.0150619 0.05032795 0.03340681
0.097123675 -0.46347243 0.11249568 0.26124644 -0.35341686 -0.3640693 0.24482489 0.6581247
0.03325418 -0.15080178 0.14225678 0.038204983 -0.25606915 -0.006772049 0.21571921 0.6100462
0.029761065 0.101774625 -0.08820281 0.079474606 -0.14275487 -0.11830905 -0.06593656 0.10956956
-0.11197308 0.046368744 0.049757537 0.062034227 0.06507685 -0.06700582 0.13858137 0.08136603
-0.18986386 -0.119444 0.4304553 -0.12662363 -0.11375568 0.088147216 0.13820583 -0.017305449
0.20531952 -0.40970206 -0.24733321 0.38261843 -0.12052877 -0.17160445 -0.15913746 0.3276842
0.038506664 -0.21920326 -0.011176349 0.24666835 0.19503224 -0.38291392 0.14442396 0.08008417
0.09728324 0.07589696 0.14204113 -0.052875146 0.03683959 0.2282 0.084667146 -0.44046006
0.07052554 0.09488017 0.09140312 0.12023872 -0.08664696 -0.018002879 -0.0026840752 -0.10041826
0.13587798 0.13814725 0.1335787 0.08897937 0.117888466 0.078358784 0.061394878 0.067704834
0.023053192 -0.02003401 0.1037684 0.0041739265 -0.0777512 -0.020346496 0.13145795 -0.06888902
0.13799474 0.02777963 0.09138143 0.02495265 0.31150895 0.29617405 -0.046468433 -0.4596815
-0.08768368 -0.01668024 -0.05960078 0.05346769 -0.14684296 -0.100907624 0.3780565 -0.18022226
-0.0031860503 0.04809985 0.11668378 0.051295023 0.10429765 0.05082286 0.12200635 -0.00885839
0.2179748 -0.2654297 -0.00074399833 0.5697684 -0.3286322 0.04368525 0.12414307 0.47931206
-0.06725838 0.10926804 -0.27379134 -0.08579437 -0.14060265 -0.40625584 0.33517897 -0.08328669
-0.12111735 0.070815764 0.07607616 -0.029903086 0.27415556 0.098535575 0.03073923 -0.5697407
-0.1435277 0.4184465 -0.37932342 -0.07777047 0.0005175038 -0.09988108 -0.05075834 -0.04402432
-0.11459157 0.105532505 0.05837982 -0.018078474 0.1032417 -0.13051836 -0.05480191 -0.072722904
-0.45063448 0.32800868 0.116932325 -0.1917198 -0.00528689 -0.03067159 0.23956208 0.023557058
00000000: 8df5 8aba 0e71 783d 75a2 2ebd b697 97bc
00000010: dbf7 163e 460c d7bd 4841 103e c670 053e
00000020: 5b16 863e 57a1 36be 9ddd 90bc 0c77 d93e
00000030: 4699 0dbd d68d 28bd ccba 7bbb a8fb b3bc
00000040: b327 6b3d 8a13 203e 3565 b73e 21ea 8ebe
00000050: ea01 0b3e 398f 243d a3e0 4abe 9e76 2e3d
00000060: 24fa debd ff6d 043f 1775 9ebd 441a bdbd
00000070: b92c bd3d eea0 e5bc ee5d 823e 33d3 cdbe
00000080: ba20 ddbd ad42 e93e 1610 353e bffb c3be
00000090: 64ce ff3d 282c 5e3c 8a89 1b3e ff9b 063e
000000a0: fd58 dfbd 6193 3abd 05e8 ec3d 1fb5 d03d
000000b0: 9f39 c83d 5809 6abd f452 86bd e32f 5d3d
000000c0: b97d aa3d 1dda d53d 421d 223d afcd cebc
000000d0: dcb2 8c3d db58 22bd 74be 20bd 69bd 123e
000000e0: 06ae 9e3c 2b3c 2f3f 7a80 80be 3ab4 95be
000000f0: 8c81 0dbe bf93 e4bd db0f bbbd 1c85 013d
00000100: 820d f5bd eade c8bd cd03 a63e 6087 95bc
00000110: 3c9b febd bda0 f2bd 095b a2bd e094 033e
00000120: 1b4e 54bd 93f0 983c 28aa 123e ebdb f3be
00000130: 2b2a c1bd e9ff 0cbe b007 3cbc 58aa ccbc
00000140: 1a68 37be 5f60 bfbd 9464 0a3e 5df0 033f
00000150: ee96 da3c 6efc 453d 5367 94bd c039 a53c
00000160: 9dbe a93d 305b 7b3d 2683 113e 7c0e 9e3d
00000170: 08e7 c2bd 30c6 763c ae24 4e3d 94d5 083d
00000180: c7e8 c63d 424c edbe 2364 e63d 18c2 853e
00000190: 0ef3 b4be 4b67 babe 60b3 7a3e dc7a 283f
000001a0: 8935 083d c86b 1abe c3ab 113e d47c 1c3d
000001b0: 7f1b 83be 10e8 ddbb 7fe5 5c3e fd2b 1c3f
000001c0: 7acd f33c 376f d03d ada3 b4bd 95c3 a23d
000001d0: 552e 12be 044c f2bd bf09 87bd 0166 e03d
000001e0: 2452 e5bd 27ed 3d3d 8fce 4b3d 9a17 7e3d
000001f0: 0347 853d 593a 89bd 46e8 0d3e 3ca3 a63d
00000200: ac6b 42be 0e9f f4bd a364 dc3e a0a9 01be
00000210: bdf8 e8bd 8786 b43d d485 0d3e 28c4 8dbc
00000220: 483f 523e 78c4 d1be eb44 7dbe 90e6 c33e
00000230: cad7 f6bd 14b9 2fbe eef4 22be 39c6 a73e
00000240: 2ab9 1d3d d276 60be 011d 37bc a196 7c3e
00000250: 88b6 473e 4b0d c4be e0e3 133e 2b03 a43d
00000260: 6f3c c73d de6f 9b3d 3b73 113e 9c93 58bd
00000270: 1ce5 163d 43ad 693e f865 ad3d fb83 e1be
00000280: b26f 903d 8950 c23d 8f31 bb3d b83f f63d
00000290: f673 b1bd c67a 93bc 4fe7 2fbb 17a8 cdbd
000002a0: 9923 0b3e 7976 0d3e dbc8 083e d13a b63d
000002b0: 826f f13d 927a a03d 3279 7b3d d5a8 8a3d
000002c0: 0cda bc3c 5d1e a4bc 8784 d43d 6fc5 883b
000002d0: 053c 9fbd b2ad a6bc ea9c 063e b015 8dbd
000002e0: 7e4e 0d3e 1b92 e33c 3026 bb3d 8069 cc3c
000002f0: 1a7e 9f3e 20a4 973e af55 3ebd 605b ebbe
00000300: 8093 b3bd 00a5 88bc f31f 74bd f000 5b3d
00000310: 005e 16be a8a8 cebd 9f90 c13e 2f8c 38be
00000320: 0ecd 50bb 5904 453d e8f7 ee3d bb1a 523d
00000330: 029a d53d a22b 503d 77de f93d c822 11bc
00000340: c934 5f3e 67e6 87be e208 43ba 58dc 113f
00000350: 7b42 a8be 4eef 323d b93e fe3d 6468 f53e
00000360: c3be 89bd ecc7 df3d 612e 8cbe f5b4 afbd
00000370: 24fa 0fbe c400 d0be 949c ab3e 3692 aabd
00000380: 600c f8bd db07 913d d1cd 9b3d 51f7 f4bc
00000390: 1e5e 8c3e 05cd c93d d6d0 fb3c 87da 11bf
000003a0: edf8 12be 9f3e d63e ae36 c2be 2046 9fbd
000003b0: 18a9 073a 748e ccbd fae7 4fbd d852 34bd
000003c0: fcae eabd 6d21 d83d ae1f 6f3d 4f19 94bc
000003d0: 6270 d33d 9ba6 05be f877 60bd bfef 94bd
000003e0: 90b9 e6be c1f0 a73e 377a ef3d 3252 44be
000003f0: a63d adbb fc42 fbbc c34f 753e bbfa c03c

conv1.lin_r.bias f4 [256]
-0.56575745 -0.33725527 -0.15789229 0.5388185 0.2993552 0.024406472 -0.27833274 0.18875551
0.35046345 0.12061098 0.3144609 -0.38024473 -0.11168552 0.6024157 0.08550475 -0.4438681
-0.35391486 -0.06894209 0.25991192 0.19742206 -0.38909236 0.29622763 -0.044347264 -0.0059303483
0.09673329 0.012763431 0.38444883 -0.18747191 -0.43034798 0.3214627 0.03158563 0.48279393
-0.28181714 0.04753623 0.4812342 0.12528764 -0.022987586 0.16131637 0.21937929 -0.14182863
0.5452996 -0.34690878 -0.28372005 -0.19296868 -0.12244715 0.12668455 0.09395442 -0.1380834
0.30899695 0.23897362 0.05288271 -0.2550354 -0.19594662 0.14298165 0.022989996 0.3220327
-0.37215236 -0.1829586 0.03315636 -0.37385735 -0.441551 -0.25970438 0.07491711 -0.040532283
0.25858885 -0.32615918 0.19697139 0.2707783 -0.47722232 0.43686 -0.20580676 0.0509412
-0.279422 0.15082896 -0.32957923 0.4202948 0.10202691 -0.4317407 0.17063877 -0.09573905
-0.30595502 -0.18901521 -0.22557983 0.49461186 0.2372206 -0.13188832 0.39762375 -0.13537078
0.010102158 0.47531334 -0.008255047 0.2773175 -0.1798242 -0.38382334 0.05856024 0.36719993
-0.07041253 0.12905525 -0.38629505 0.48556212 -0.17720181 -0.25240898 -0.007096908 0.40014705
0.31700644 0.29408652 0.22648197 0.099464126 0.3509429 0.31051686 -0.20102035 -0.19378014
-0.22589646 -0.33684015 -0.45276868 -0.14639106 0.2221707 -0.33268398 0.35827792 -0.32755524
0.076946154 -0.2839526 -0.49741194 0.10145632 -0.23450007 0.35788736 -0.12224514 -0.22767004
0.27183318 0.4237392 -0.31436762 0.43488815 0.18357009 0.12031736 -0.16210075 -0.24388185
-0.12961967 0.29719028 -0.2944409 -0.45930383 0.2827705 0.0917252 0.22967806 -0.19937892
0.3684443 -0.35509235 -0.27825016 -0.19608472 0.03452262 0.017658267 -0.45954245 0.30988577
0.48434174 -0.41074505 -0.39217967 0.3494408 -0.3130836 -0.28727302 -0.3773995 0.34410316
-0.22351596 -0.08142329 0.36691532 0.21914391 0.25986555 -0.439607 -0.12749815 -0.39815274
0.17326017 0.16260941 -0.39988253 0.11982305 -0.55985755 0.18421257 -0.12019774 0.23159415
0.0026733717 0.15537304 -0.055946037 -0.07169833 -0.3167468 0.4100704 -0.30640858 -0.35705927
0.21343529 -0.38521037 -0.15711099 -0.2117581 0.47781765 0.16887012 0.16711196 0.46900654
-0.24359898 0.12317221 -0.15432242 -0.33433515 -0.19482477 -0.16258997 0.49696258 -0.17138198
-0.0027643323 -0.1777719 -0.09859391 0.11582023 -0.14750482 -0.09763131 0.505786 -0.11843244
0.20964336 0.052614287 0.26520923 -0.43121746 -0.08366059 0.2175711 -0.3938107 -0.06395096
-0.034049574 0.08415399 0.08129376 -0.36264986 0.2829559 -0.0078599 -0.43323824 0.16492307
-0.13201989 0.48265496 -0.15662563 -0.13696264 -0.45710886 -0.41386995 -0.043550525 0.48867163
-0.41143382 -0.29237148 0.44714898 0.0045821834 0.2188829 -0.11503475 0.43984628 -0.3156789
-0.40971482 0.45787942 -0.024192736 -0.21627164 -0.021949494 0.27046353 0.43658715 -0.27701265
-0.3916504 0.3746389 0.4560899 -0.13167112 -0.39343762 -0.36951637 -0.1424935 0.31323525
00000000: 7bd5 10bf b9ac acbe 84ae 21be 02f0 093f
00000010: 1645 993e 15f0 c73c a181 8ebe 2049 413e
00000020: f26f b33e e402 f73d 0501 a13e 70af c2be
00000030: 61bb e4bd ea37 1a3f 1d1d af3d ae42 e3be
00000040: 5434 b5be 8331 8dbd 2d13 853e 0229 4a3e
00000050: 1d37 c7be 26ab 973e 7aa5 35bd 5e53 c2bb
00000060: 1a1c c63d b61d 513c 7ad6 c43e a3f8 3fbe
00000070: 9256 dcbe c296 a43e ef5f 013d c430 f73e
00000080: 564a 90be 5ab5 423d 5464 f63e 674b 003e
00000090: 7650 bcbc 1e30 253e f7a4 603e 863b 11be
000000a0: c198 0b3f 079e b1be c143 91be 9599 45be
000000b0: 92c5 fabd 98b9 013e 2d6b c03d bc65 0dbe
000000c0: d934 9e3e 80b5 743e 8a9b 583d 0094 82be
000000d0: 3ba6 48be c869 123e 8455 bc3c 78e1 a43e
000000e0: c18a bebe 8059 3bbe f7ce 073d 3b6a bfbe
000000f0: f912 e2be f9f7 84be 246e 993d 2e05 26bd
00000100: c265 843e 56fe a6be deb2 493e 74a3 8a3e
00000110: 7c56 f4be 1dac df3e 02bf 52be b8a7 503d
00000120: 6610 8fbe e872 1a3e 9cbe a8be e130 d73e
00000130: 7cf3 d03d 1e0d ddbe eebb 2e3e d612 c4bd
00000140: 23a6 9cbe 348d 41be 66fe 66be c43d fd3e
00000150: f5e9 723e bb0d 07be 5795 cb3e a39e 0abe
00000160: 8683 253c 455c f33e 2d40 07bc 8ffc 8d3e
00000170: d623 38be 7e84 c4be dddc 6f3d a101 bc3e
00000180: 7234 90bd 0f27 043e 77c8 c5be 999b f83e
00000190: 6474 35be c03b 81be 2e8d e8bb 13e0 cc3e
000001a0: ab4e a23e 8292 963e e4ea 673e d9b3 cb3d
000001b0: caae b33e 11fc 9e3e 47d8 4dbe 4d6e 46be
000001c0: 6751 67be 5076 acbe 4cd1 e7be 8ae7 15be
000001d0: b780 633e 8e55 aabe 3470 b73e 52b5 a7be
000001e0: f295 9d3d 3c62 91be c7ac febe 55c8 cf3d
000001f0: c920 70be 033d b73e a95b fabd 5622 69be
00000200: b82d 8b3e 58f4 d83e cbf4 a0be a9a9 de3e
00000210: ccf9 3b3e f368 f63d bdfd 25be 2abc 79be
00000220: 05bb 04be 5329 983e f5c0 96be df29 ebbe
00000230: 4cc7 903e 6cda bb3d ba30 6b3e fd29 4cbe
00000240: bba4 bc3e aace b5be ce76 8ebe 6fca 48be
00000250: 9767 0d3d 12a8 903c 2649 ebbe 59a9 9e3e
00000260: a4fb f73e 2d4d d2be c6cb c8be e8e9 b23e
00000270: 7e4c a0be 7315 93be 823a c1be 4a2e b03e
00000280: 5ee1 64be 41c1 a6bd 53dc bb3e 4367 603e
00000290: 190d 853e 2b14 e1be e08e 02be adda cbbe
000002a0: 1d6b 313e 1583 263e 67bd ccbe ca65 f53d
000002b0: d352 0fbf 38a2 3c3e 3c2a f6bd 0427 6d3e
000002c0: bc33 2f3b 1c1a 1f3e ac27 65bd 93d6 92bd
000002d0: a32c a2be bff4 d13e 96e1 9cbe 79d0 b6be
000002e0: c88e 5a3e 4b3a c5be b4e1 20be 1ed7 58be
000002f0: 84a4 f43e 4aec 2c3e 661f 2b3e a021 f03e
00000300: 0372 79be b641 fc3d b206 1ebe fa2d abbe
00000310: 2580 47be fc7d 26be e171 fe3e c27e 2fbe
00000320: cd29 35bb d609 36be 9beb c9bd 2833 ed3d
00000330: 810b 17be edf2 c7bd 317b 013f b58c f2bd
00000340: c0ac 563e 1482 573d 81c9 873e 89c8 dcbe
00000350: 3e56 abbd f5ca 5e3e 8ea1 c9be b9f8 82bd
00000360: 9177 0bbd ed58 ac3d 587d a63d 3ead b9be
00000370: 99df 903e cfc6 00bc 67d1 ddbe 98e1 283e
00000380: 3930 07be 8d1e f73e 7862 20be ef3f 0cbe
00000390: 2c0a eabe c3e6 d3be 0962 32bd 2b33 fa3e
000003a0: 74a7 d2be b7b1 95be b6f0 e43e 2426 963b
000003b0: d722 603e 5797 ebbd 8833 e13e aaa0 a1be
000003c0: 24c6 d1be 2c6f ea3e d82f c6bc 5076 5dbe
000003d0: 6dcf b3bc 327a 8a3e 5a88 df3e 9ad4 8dbe
000003e0: 6786 c8be abd0 bf3e 9e84 e93e cbd4 06be
000003f0: a870 c9be 4031 bdbe d1e9 11be 5f60 a03e

conv1.lin_edge.weight f4 [256, 2]
0.21570724 -0.28983107 0.15438734 0.03737231 0.37497216 -0.2543282 -0.1655316 0.2918505
-0.20048782 0.67339444 -0.0046459045 -0.31945437 0.08208072 -0.012135989 -0.2981801 0.5496995
0.39037293 -0.49474967 0.06854798 -0.12798822 0.2344212 -0.22123812 -0.05601689 0.018835805
0.0037175887 -0.053315286 0.007356967 0.06722244 0.27774337 -0.4330736 -0.219959 -0.06217593
0.107895866 -0.17231473 -0.012380996 0.102562964 -0.32515037 0.47102803 -0.10999376 0.065879755
0.24517886 -0.48862088 0.24217471 -0.20112658 -0.0037024543 -0.11346271 0.27928606 -0.29212132
0.42717406 -0.42441574 0.31798607 -0.34403187 -0.025175082 0.06457613 0.29479793 -0.32551506
0.041385174 -0.058754656 -0.013168308 0.2701463 0.038855154 -0.0997019 0.22683634 -0.12773708
-0.018937293 0.37431204 -0.032791577 0.0067667 0.52598506 -0.52259964 -0.38857463 0.35768738
0.31126624 -0.3454944 -0.09018205 -0.045104112 0.13654374 -0.22406037 -0.18384431 0.4198509
0.112215795 -0.05944162 0.17394926 -0.29207376 0.16680495 0.00032561983 -0.084405914 0.2396013
-0.2347116 0.14936408 -0.039686922 0.05688362 -0.090461835 0.16047509 -0.1945015 0.37963346
0.2686255 -0.25771946 -0.24307084 0.41563275 -0.016664796 -0.069744445 0.12185152 0.02531921
0.53999925 -0.46856588 0.059497286 -0.4636194 -0.012838335 -0.6157351 -0.16787352 0.54309624
-0.2560341 0.111794196 -0.41415665 0.48670354 0.28426978 -0.33946446 -0.17630772 0.058428343
-0.19839236 0.007737496 -0.23411062 0.09985716 -0.22774535 0.1621911 0.043251716 -0.7057835
-0.00843495 0.18233933 0.0039920956 -0.07705579 0.06279993 -0.58755183 -0.0092756525 0.20350263
0.04470798 0.18922105 0.023562118 -0.083954826 0.28130046 -0.47703093 0.37739196 -0.44058922
0.19608347 -0.089101374 0.20633353 -0.50643903 0.001650173 0.1682293 -0.09262242 0.04287458
0.31264037 -0.37305072 -0.06867807 -0.21651888 0.0351816 0.080213286 0.03190558 0.04811759
0.28922078 -0.12236151 -0.15570846 0.18398124 0.011164316 0.15313423 0.05573562 -0.11636475
0.16769533 -0.07244927 0.1758089 -0.20811467 0.006889734 0.20299776 -0.07929453 -0.10775576
-0.050960474 0.0016005937 0.023519574 -0.52238685 -0.03964959 0.07069427 -0.14911462 -0.09105695
-0.5928039 0.5418444 -0.11961937 -0.038960233 -0.6594234 0.48213 0.15186343 -0.03731313
-0.09672447 -0.11853088 -0.6299775 0.29878032 0.23331171 -0.53067124 0.10961639 0.015358622
0.050398726 -0.06041321 0.11032389 -0.19195645 0.41515598 -0.56184685 -0.08467987 0.16185248
0.24923715 -0.37881467 0.0038182738 0.1445993 0.09776136 0.013798654 0.077133 -0.002233723
0.086714275 -0.05747306 -0.17105123 0.2928132 -0.20553304 0.3133937 -0.025091933 0.41131055
0.04740698 -0.2066343 -0.08840643 -0.05085964 0.01668311 0.045269433 -0.13667335 0.010157604
-0.057777535 -0.11562613 -0.052065223 -0.060096126 0.20975332 -0.7407022 -0.19293192 0.21115609
0.12751144 -0.31476426 -0.17349756 0.027613912 0.043626145 -0.003772474 0.046195436 -0.065897286
0.013531326 -0.07978337 -0.17984965 0.3673605 0.06425912 -0.009304154 0.06751503 0.048144232
00000000: 5ce2 5c3e bd64 94be b717 1e3e b513 193d
00000010: 5afc bf3e 4e37 82be 1e81 29be 6e6d 953e
00000020: ae4c 4dbe 9463 2c3f ac3c 98bb 868f a3be
00000030: f019 a83d 07d6 46bc 10ab 98be 1bb9 0c3f
00000040: f6de c73e d44f fdbe e262 8c3d 580f 03be
00000050: 1c0c 703e 3f8c 62be f771 65bd 8c4d 9a3c
00000060: caa2 733b 2161 5abd b612 f13b ebab 893d
00000070: 6134 8e3e d3bb ddbe ef3c 61be 30ac 7ebd
00000080: 82f8 dc3d 4673 30be a9d9 4abc 880c d23d
00000090: 1c7a a6be 962a f13e 6944 e1bd f7eb 863d
000000a0: 2b10 7b3e 842c fabe a6fc 773e 20f4 4dbe
000000b0: e0a4 72bb 235f e8bd 95fe 8e3e ed90 95be
000000c0: 8fb6 da3e 054d d9be 12cf a23e f224 b0be
000000d0: f93b cebc 7d40 843d c1ef 963e e9a9 a6be
000000e0: 8083 293d b9a8 70bd e3bf 57bc 9e50 8a3e
000000f0: 9526 1f3d 8230 ccbd c947 683e 82cd 02be
00000100: 6222 9bbc d4a5 bf3e 7650 06bd 32bb dd3b
00000110: f5a6 063f 17c9 05bf 41f3 c6be cd22 b73e
00000120: 4a5e 9f3e a4e4 b0be 5eb1 b8bd 17bf 38bd
00000130: 1fd2 0b3e 1570 65be af41 3cbe b2f6 d63e
00000140: 65d1 e53d 0e79 73bd c11f 323e b18a 95be
00000150: ebce 2a3e f4b7 aa39 02dd acbd 0b5a 753e
00000160: 3d58 70be e6f2 183e c18e 22bd ccfe 683d
00000170: 0e44 b9bd 9553 243e 672b 47be 515f c23e
00000180: 4889 893e cef3 83be 90e7 78be d1cd d43e
00000190: 9c84 88bc 2dd6 8ebd 4a8d f93d 3b6a cf3c
000001a0: 643d 0a3f dee7 efbe 6db3 733d 865f edbe
000001b0: e157 52bc d1a0 1dbf 09e7 2bbe 5b08 0b3f
000001c0: e716 83be 5bf4 e43d 570c d4be 3531 f93e
000001d0: cf8b 913e 49ce adbe 038a 34be 8f52 6f3d
000001e0: 5e27 4bbe d28a fd3b b2ba 6fbe e981 cc3d
000001f0: 1436 69be 6c15 263e b628 313d 3aae 34bf
00000200: bf32 0abc 29b7 3a3e 20d0 823b 6dcf 9dbd
00000210: 409d 803d cc69 16bf e8f8 17bc fe62 503e
00000220: b71f 373d 2ac3 413e 5805 c13c 82f0 abbd
00000230: 9d06 903e 663d f4be 8539 c13e e994 e1be
00000240: 1bca 483e c87a b6bd 1949 533e fda5 01bf
00000250: 9e4a d83a 4d44 2c3e d3b0 bdbd 419d 2f3d
00000260: 6612 a03e 8100 bfbe 17a7 8cbd 20b7 5dbe
00000270: 951a 103d dd46 a43d 6daf 023d f316 453d
00000280: bf14 943e ac98 fabd 0a72 1fbe 9465 3c3e
00000290: 89ea 363c 38cf 1c3e 094b 643d a450 eebd
000002a0: 53b8 2b3e 4860 94bd 4007 343e 031c 55be
000002b0: 47c3 e13b a5de 4f3e 2c65 a2bd 0daf dcbd
000002c0: eebb 50bd 03cb d13a 1fac c03c 25bb 05bf
000002d0: 9c67 22bd 28c8 903d 81b1 18be 117c babd
000002e0: ffc1 17bf 51b6 0a3f 00fb f4bd c494 1fbd
000002f0: f9cf 28bf bed9 f63e 1682 1b3e a7d5 18bd
00000300: 7b17 c6bd 51c0 f2bd 3546 21bf bcf9 983e
00000310: 44e9 6e3e 12da 07bf 8f7e e03d bba2 7b3c
00000320: e56e 4e3d d873 77bd 7ef1 e13d 3b90 44be
00000330: 538f d43e 32d5 0fbf a46c adbd a8bc 253e
00000340: 0638 7f3e fff3 c1be 013c 7a3b d711 143e
00000350: 1c37 c83d c013 623c e8f7 9d3d a763 12bb
00000360: 4197 b13d df68 6bbd 0e28 2fbe 9deb 953e
00000370: 4177 52be 2475 a03e 998d cdbc 4c97 d23e
00000380: d22d 423d f197 53be 6e0e b5bd 3352 50bd
00000390: 04ab 883c 716c 393d 19f4 0bbe 146c 263c
000003a0: 23a8 6cbd 64cd ecbd 5842 55bd 5b27 76bd
000003b0: 93c9 563e a99e 3dbf f28f 45be 4d39 583e
000003c0: 5c92 023e c828 a1be 58a9 31be 9236 e23c
000003d0: 54b1 323d 9c3b 77bb 6d37 3d3d 28f5 86bd
000003e0: 7fb2 5d3c 7765 a3bd 822a 38be ad16 bc3e
000003f0: 499a 833d 7370 18bc 5245 8a3d e332 453d

conv2.att f4 [1, 4, 64]
-0.34803542 -0.4429591 -0.1686854 -0.101498045 -0.15882555 0.26475412 -0.8117891 -0.37048742
-0.3153245 0.16305539 -0.31897458 0.3698876 0.2403909 0.00412272 0.2959959 -0.07084166
-0.70747656 0.113078915 -0.2784893 0.49221566 -0.3175097 -0.10015139 0.44461834 -0.15033512
0.37542498 -0.27723083 -0.29445994 0.24111645 -0.3046427 0.3530877 0.36004388 0.22935583
0.51961267 -0.39496064 -0.4038137 0.3328213 0.22409506 0.0060724365 0.37382823 0.16301341
0.16930805 0.21078353 -0.2966758 0.43450582 -0.073240526 -0.11281915 -0.099983394 0.3164172
-0.28782603 -0.2733377 0.43620563 0.6825884 0.10127419 0.20062107 -0.38481677 0.39516336
-0.20032114 0.6398942 0.3002064 -0.31002483 0.23045778 -0.1959971 -0.24508184 -0.25090075
-0.18730672 0.26701486 -0.60650456 -0.21082242 0.23787576 0.4317326 -0.17725268 -0.31588992
-0.35198796 -0.4211852 -0.20341685 -0.33442098 -0.12718764 0.0047440003 0.83425015 -0.113907516
0.23994803 0.09438364 -0.18661776 -0.36554232 0.23520045 -0.31034642 -0.3153544 0.21173184
0.37589502 -0.28845584 -0.38099372 0.3991535 -0.13065833 0.17873968 -0.08872606 -0.6175418
0.15476528 0.29615796 0.2508652 0.29613888 -0.3177387 0.12220038 0.18633823 0.58327395
-0.13521616 0.37354282 -0.28197023 0.3566987 -0.36417764 -0.28222322 -0.038563233 0.06923113
0.17350346 0.2827738 0.23747633 0.29208395 0.26109716 -0.37815356 -0.10963965 -0.26022092
0.24849336 -0.002662055 0.2007016 -0.4918545 0.30347952 -0.07616116 0.22112885 -0.4875566
0.260143 0.14819779 -0.24998127 -0.23553444 0.44813317 -0.3822997 -0.37068775 0.23690398
-0.61683977 -0.13784301 -0.21601576 -0.41605964 0.15633692 -0.06369863 -0.45119816 -0.08974484
-0.13964038 0.31903717 0.27198046 0.41436145 -0.37404943 0.09303268 0.18410525 0.17840621
0.33301768 0.4243555 0.38824207 0.44456485 -0.2775762 -0.31486058 0.4076992 0.35045645
0.60405815 -0.15494096 0.1905276 0.08160859 -0.07410229 -0.061682276 -0.38106978 -0.13178591
-0.3640059 -0.0043856427 0.28606445 -0.095883176 -0.57460725 -0.10032303 0.23791558 0.36411056
-0.27136156 0.12835601 0.28274864 0.64189106 0.044126328 -0.41127312 0.14479916 -0.19755694
-0.4148687 -0.16749257 -0.21811748 -0.032489173 0.25823283 -0.24605227 -0.09080674 -0.24941897
0.17127664 0.12121677 0.19489923 -0.24762586 0.01040214 0.34904537 0.19633299 0.36496812
0.09632613 0.26799792 -0.76387227 0.26691738 0.389522 0.13141459 -0.23959464 -0.020941103
-0.7014554 -0.44471872 0.19920328 0.21568573 0.3692047 -0.4495078 0.2647605 -0.23806728
0.1865093 0.3627977 0.19678108 -0.42897394 0.3642737 -0.5190322 -0.43016645 0.27607277
0.6783544 0.29816592 0.026271082 -0.53967625 -0.03195541 -0.17445202 -0.20816858 -0.68528813
0.4175884 0.03137858 0.16134728 0.19474381 0.17870238 0.17364207 0.32862443 0.20679845
-0.350922 0.1246212 0.23650533 0.046980295 -0.23847574 -0.32684234 -0.61202294 -0.35037532
0.2638712 -0.66446894 0.18768351 -0.24094175 0.24537247 0.30092195 0.09825654 0.06992286
00000000: b331 b2be 89cb e2be debb 2cbe 35de cfbd
00000010: 2aa3 22be da8d 873e 69d1 4fbf 87b0 bdbe
00000020: 3672 a1be fef7 263e a350 a3be e861 bd3e
00000030: 0829 763e e217 873b c68c 973e 6f15 91bd
00000040: 2f1d 35bf eb95 e73d 2696 8ebe b103 fc3e
00000050: a290 a2be 2c1c cdbd 04a5 e33e 73f1 19be
00000060: b437 c03e 33f1 8dbe 74c3 96be 3be7 763e
00000070: 21fa 9bbe e9c7 b43e ac57 b83e 41dc 6a3e
00000080: 5605 053f 4838 cabe abc0 cebe 8e67 aa3e
00000090: 2d79 653e 4afb c63b 6a66 bf3e fdec 263e
000000a0: 175f 2d3e a3d7 573e e4e5 97be 8c77 de3e
000000b0: 21ff 95bd ba0d e7bd 18c4 ccbd 6f01 a23e
000000c0: ef5d 93be ebf2 8bbe 5856 df3e 1dbe 2e3f
000000d0: d868 cf3d 9c6f 4d3e b406 c5be da52 ca3e
000000e0: fc20 4dbe 1bd0 233f a7b4 993e 93bb 9ebe
000000f0: 20fd 6b3e 77b3 48be bcf6 7abe 1076 80be
00000100: 55cd 3fbe 2cb6 883e e243 1bbf d5e1 57be
00000110: b495 733e 0e0c dd3e ba81 35be 53bc a1be
00000120: c437 b4be 96a5 d7be 824c 50be 3a39 abbe
00000130: 7a3d 02be 8f73 9b3b 6b91 553f 5848 e9bd
00000140: f0b4 753e 364c c13d ba18 3fbe 5d28 bbbe
00000150: 63d8 703e bae5 9ebe 2276 a1be 3bd0 583e
00000160: 5075 c03e 7cb0 93be 9c11 c3be d95d cc3e
00000170: 4ccb 05be 8907 373e 02b6 b5bd 3817 1ebf
00000180: ca7a 1e3e 04a2 973e 6771 803e 849f 973e
00000190: a6ae a2be 3144 fa3d 73cf 3e3e 7151 153f
000001a0: 1b76 0abe 0141 bf3e 675e 90be 36a1 b63e
000001b0: 7e75 babe 907f 90be 7bf4 1dbd 0dc9 8d3d
000001c0: e4aa 313e bac7 903e ff2c 733e 078c 953e
000001d0: 87ae 853e 589d c1be c18a e0bd ad3b 85be
000001e0: 0b75 7e3e df75 2ebb b884 4d3e 5ad4 fbbe
000001f0: ab61 9b3e 62fa 9bbd 9a6f 623e 05a1 f9be
00000200: 7731 853e 29c1 173e 17fb 7fbe f12f 71be
00000210: b671 e53e c9bc c3be c9ca bdbe f596 723e
00000220: 36e9 1dbf b826 0dbe 3c33 5dbe c505 d5be
00000230: c916 203e 6d74 82bd 7203 e7be 25cc b7bd
00000240: e3fd 0ebe d758 a33e 0641 8b3e 2f27 d43e
00000250: 6883 bfbe eb87 be3d 1686 3c3e 1eb0 363e
00000260: 4b81 aa3e 2045 d93e aac7 c63e 019e e33e
00000270: 781e 8ebe 6835 a1be f3bd d03e 076f b33e
00000280: 8ea3 1a3f d8a8 1ebe ab19 433e 6822 a73d
00000290: f1c2 97bd 8ea6 7cbd 941b c3be e3f2 06be
000002a0: fb5e babe 70b5 8fbb 0a77 923e 665e c4bd
000002b0: 7619 13bf 2976 cdbd 24a0 733e b36c ba3e
000002c0: e7ef 8abe c26f 033e 6ec4 903e f952 243f
000002d0: cfbd 343d 6492 d2be 3b46 143e 5e4c 4abe
000002e0: ac69 d4be 2c83 2bbe 305a 5fbe 5e13 05bd
000002f0: 1837 843e 20f5 7bbe e2f8 b9bd b067 7fbe
00000300: 2563 2f3e 7f40 f83d aa93 473e a291 7dbe
00000310: bd6d 2a3c 13b6 b23e 840b 493e 1add ba3e
00000320: a246 c53d 0637 893e 228d 43bf 65a9 883e
00000330: 6d6f c73e 8c91 063e 4c58 75be ad8c abbc
00000340: 9592 33bf 2cb2 e3be f2fb 4b3e b8dc 5c3e
00000350: 6608 bd3e e325 e6be b08e 873e e9c7 73be
00000360: 4bfc 3e3e 9fc0 b93e fb80 493e 79a2 dbbe
00000370: 1582 ba3e 4bdf 04bf c73e dcbe 6959 8d3e
00000380: a2a8 2d3f 34a9 983e 7436 d73c 3928 0abf
00000390: ade3 02bd 8da3 32be 252a 55be 0b6f 2fbf
000003a0: 26ce d53e d386 003d 3938 253e ec6a 473e
000003b0: c2fd 363e 3acf 313e 7641 a83e f9c2 533e
000003c0: 0cac b3be 6639 ff3d 742e 723e 696e 403d
000003d0: fc32 74be e157 a7be 89ad 1cbf 6564 b3be
000003e0: 201a 873e a31a 2abf 1b30 403e 6fb9 76be
000003f0: ec42 7b3e 7112 9a3e ba3a c93d b733 8f3d
